ML-DFTXC/simple_H2/d0700/dm_rks_b3lypg.npy (npy, 67840 bytes, 1 tensors)

array f8 [92, 92]
0.012292740693904439 0.03092074209841089 0.03845355158200627 0.015412756862171592 7.860371827329302e-05 2.809490641294775e-17 9.643649130006951e-18 -0.0009510491487338227
6.803595203054248e-17 5.141712097542346e-18 -0.0014760132863213997 1.5673703279157098e-16 2.6012560016936943e-17 -0.0005588750260755074 6.285191438450941e-17 3.600206812568443e-17
-0.0003697590907713764 6.579761429447923e-19 -9.486088337292784e-20 0.0002615206432739956 -1.2639811466963652e-18 1.0376374832575411e-19 -6.0618667517021305e-18 -9.423896399916016e-18
-0.000281417104270671 -4.306118095416441e-17 -9.785038763189121e-19 -8.207340911976703e-18 -7.322434502494819e-18 -0.00024590507807565226 -5.0614771569758724e-17 -7.600622194389421e-18
-6.250483735044979e-20 7.6628971796724e-19 1.7019318846783378e-18 -6.184861854684095e-06 5.543974678139011e-18 -2.4637955633935586e-19 4.83834923896624e-20 -2.804831924280978e-19
4.563392343295215e-18 1.9498594532019104e-18 0.00019247928490292464 1.6730950416607047e-17 2.4527813341090797e-18 -5.636170170275408e-20 0.012292740693904352 0.030920742098416266
0.03845355158230595 0.015412756862197894 7.860371828111787e-05 2.860501282813513e-18 1.5325271190198184e-18 0.000951049148734058 -3.30529109052625e-17 -1.1504074810341961e-17
0.0014760132863265204 -1.4032644581357636e-16 -2.0893445799095184e-17 0.0005588750261840158 -5.1995799273464646e-17 -3.68566547815664e-17 0.0003697590907802421 -7.06487430551299e-19
-5.653291008005752e-19 0.0002615206432741744 -9.692299004380774e-19 -3.679675462992843e-19 5.9066522520525215e-18 -6.5467457000824084e-18 -0.0002814171042667637 -3.8803759858661694e-17
9.547414672544179e-19 7.93357053088152e-18 -1.67230449766891e-17 -0.0002459050780676382 -3.7916424889582096e-17 8.018064925924553e-18 -8.090374358856319e-21 7.057466957170068e-19
-4.550392887962744e-19 6.184861855274284e-06 -5.3372688771205156e-18 -1.9793822479820123e-19 9.352731834548917e-20 4.308226532233583e-19 5.058792866930641e-18 -1.954662135459976e-18
-0.0001924792849078388 -8.788792649966928e-18 2.665228373279822e-18 -2.301337914312973e-19 0.03092074209841089 0.07777698364617208 0.09672475657318208 0.03876872471547681
0.00019771712112253678 7.066897261605094e-17 2.4257307223959536e-17 -0.002392236701575734 1.7113532112488347e-16 1.2933287838018242e-17 -0.0037127136491867095 3.942510046292214e-16
6.543110927264425e-17 -0.0014057752438471607 1.5809556904088105e-16 9.055837841562148e-17 -0.0009300794484304048 1.6550508246701668e-18 -2.3860984161621473e-19 0.0006578201367328537
-3.179375212366763e-18 2.6100380550091835e-19 -1.5247813578078428e-17 -2.3704548676312558e-17 -0.0007078670184224964 -1.0831463087779597e-16 -2.461295390128534e-18 -2.0644466353935837e-17
-1.8418602850413956e-17 -0.0006185412748222366 -1.273146759578638e-16 -1.9118346714716775e-17 -1.572225432669167e-19 1.9274991095906085e-18 4.2809816122857174e-18 -1.555719127938784e-05
1.3945125459927765e-17 -6.197347613187472e-19 1.2170219215174856e-19 -7.055178883183223e-19 1.1478601985874705e-17 4.9046101908340994e-18 0.0004841558506738117 4.208446397553437e-17
6.169642795230398e-18 -1.417703086702703e-19 0.030920742098410673 0.0777769836461856 0.09672475657393587 0.03876872471554296 0.00019771712114221917 7.195207695376587e-18
3.8548666229923834e-18 0.0023922367015763255 -8.314016858829217e-17 -2.8936958742471155e-17 0.0037127136491995902 -3.529723719576864e-16 -5.255466337309944e-17 0.0014057752441200989
-1.3078846610119823e-16 -9.270797664153807e-17 0.0009300794484527053 -1.7770744685664734e-18 -1.4220096040298861e-18 0.0006578201367333034 -2.4379679464299638e-18 -9.255730583617634e-19
1.4857392301562012e-17 -1.646746160329462e-17 -0.000707867018412668 -9.76056585683377e-17 2.401524234076694e-18 1.995583364306889e-17 -4.2064578900678887e-17 -0.0006185412748020785
-9.537368634855298e-17 2.0168367972307807e-17 -2.0350252662031566e-20 1.775211249342642e-18 -1.144590359779641e-18 1.555719128087238e-05 -1.3425184714190919e-17 -4.97887082531348e-19
2.352554374754572e-19 1.0836766578081476e-18 1.2724715623848413e-17 -4.916690694537875e-18 -0.00048415585068617255 -2.210703029152737e-17 6.7040248562647514e-18 -5.7887071647945595e-19
0.03845355158200627 0.09672475657318208 0.12028852361648232 0.04821343391017143 0.00024588431582701204 8.788511527601282e-17 3.016679262122366e-17 -0.0029750255381205313
2.1282674514843288e-16 1.608405288014508e-17 -0.004617192736313955 4.902971375821764e-16 8.137122089358983e-17 -0.0017482455847902304 1.9661029155288573e-16 1.1261991269500965e-16
-0.0011566623443821091 2.058248862680662e-18 -2.9673918638049155e-19 0.0008180761147009865 -3.953924143805742e-18 3.24588694087174e-19 -1.896243576791735e-17 -2.9479372854366564e-17
-0.0008803152530905578 -1.3470188497705406e-16 -3.0609080772264504e-18 -2.5673803342024678e-17 -2.2905682293222855e-17 -0.0007692282656501696 -1.5833065854340325e-16 -2.377589545610628e-17
-1.9552458211147862e-19 2.3970701026196535e-18 5.323900271400972e-18 -1.934718304719547e-05 1.7342391055305242e-17 -7.707125054012704e-19 1.513508798933715e-19 -8.77393835637309e-19
1.427498124554511e-17 6.099455192977577e-18 0.0006021043064995635 5.233694266242934e-17 7.67267087943333e-18 -1.7630792494884407e-19 0.038453551582006 0.09672475657319889
0.12028852361741973 0.048213433910253706 0.00024588431585148936 8.948080527201562e-18 4.793976550019804e-18 0.0029750255381212672 -1.0339450298998146e-16 -3.598648545007554e-17
0.0046171927363299736 -4.3896234019543655e-16 -6.535785759800105e-17 0.0017482455851296607 -1.626507220152512e-16 -1.1529318897013246e-16 0.0011566623444098424 -2.2099995053352616e-18
-1.7684349064016085e-18 0.0008180761147015457 -3.0318976784241067e-18 -1.1510581223876426e-18 1.8476901344213843e-17 -2.0479210433294908e-17 -0.0008803152530783352 -1.2138402805818035e-16
00000000: 1577 11ba ef2c 893f a0a9 52e0 afa9 9f3f
00000010: 7366 eb14 2fb0 a33f 0556 5035 b990 8f3f
00000020: 6d62 e998 019b 143f 9320 198e 1332 803c
00000030: 82d7 b60d 9b3c 663c 5f45 cf7e fa29 4fbf
00000040: 0d82 49cc 2a9c 933c 3769 c020 43b6 573c
00000050: d4fb c332 d92e 58bf 54bc a96b 9396 a63c
00000060: f51e 0577 8dfd 7d3c a762 d2fa 2e50 42bf
00000070: 2952 7218 a71d 923c bdba bbad f7c0 843c
00000080: 306d c733 873b 38bf 477a 1fb2 6846 283c
00000090: 3edf c156 7cff fbbb 58e7 2e9c 9623 313f
000000a0: 026d 9971 fb50 37bc b912 b7ca 2aa0 fe3b
000000b0: 03eb cbce 96f4 5bbc 6044 bcf5 e2ba 65bc
000000c0: 3f91 6642 6571 32bf 7525 d46b b5d2 88bc
000000d0: 17d5 c599 da0c 32bc f101 d84a c2ec 62bc
000000e0: e876 3d04 67e2 60bc 5360 ac44 9a1d 30bf
000000f0: aff9 a201 6c2d 8dbc 8153 4f8d 9d86 61bc
00000100: 2d77 3863 bb72 f2bb 8f3c c8d9 6645 2c3c
00000110: e880 0b66 2565 3f3c 865f a0e1 f1f0 d9be
00000120: 17a4 6d88 2b91 593c 2863 a76d fa2d 12bc
00000130: 7ac9 c1b3 818f ec3b 1fda 407e 2db2 14bc
00000140: 58bc 0bb5 800b 553c b620 03b8 f9fb 413c
00000150: 3bab b677 883a 293f ab10 20df 1a4a 733c
00000160: c75f a357 779f 463c 7161 e1dc 91a2 f0bb
00000170: e376 11ba ef2c 893f adaf 52e0 afa9 9f3f
00000180: 270f ec14 2fb0 a33f 3f91 5035 b990 8f3f
00000190: c931 f298 019b 143f 5c81 cded 2a62 4a3c
000001a0: 3138 7b9a 2745 3c3c d94d cf7e fa29 4f3f
000001b0: 191d 41ab bf0d 83bc e240 35a2 ce86 6abc
000001c0: 1358 c432 d92e 583f 469e 09cf 2139 a4bc
000001d0: fd5a 6521 a816 78bc 14a8 e1fa 2e50 423f
000001e0: ff88 06c2 39f9 8dbc a570 b80c 153f 85bc
000001f0: 07ec c933 873b 383f b801 c4ca 9510 2abc
00000200: b38a a0e4 61db 24bc 3af4 2e9c 9623 313f
00000210: 9d97 410d 0fe1 31bc fab2 b8de b526 1bbc
00000220: 3537 8f1a 583d 5b3c 2e6c 527a 0831 5ebc
00000230: b277 6542 6571 32bf 49b4 8799 6c5e 86bc
00000240: 7ebd 5e9c a39c 313c e761 3548 274b 623c
00000250: 9da7 ad8d c547 73bc da1e aa44 9a1d 30bf
00000260: a9bd 4a08 7adb 85bc 5922 cbb6 077d 623c
00000270: 319a 40cb 541a c3bb 1b58 1cce 9609 2a3c
00000280: c440 867d b9c9 20bc 4a01 abe1 f1f0 d93e
00000290: 14b5 b689 229d 58bc 66c6 900b e535 0dbc
000002a0: 6365 9670 b99a fb3b 8ba0 4184 02ca 1f3c
000002b0: a6cb 0654 5e54 573c da59 18c3 5007 42bc
000002c0: 6f6f b977 883a 29bf 0ef8 72cb fc43 64bc
000002d0: caeb a3b2 1795 483c a92b ceba 1afb 10bc
000002e0: a0a9 52e0 afa9 9f3f 5c4f 2441 31e9 b33f
000002f0: 4c04 3222 f4c2 b83f 566d 8589 7ed9 a33f
00000300: 2a87 5e23 49ea 293f 5292 9026 735e 943c
00000310: df24 4750 7ef7 7b3c 00cd b84c e298 63bf
00000320: 2a3a b668 c7a9 a83c 9148 3233 77d2 6d3c
00000330: 3d45 7cf6 1f6a 6ebf efbf e7ba a568 bc3c
00000340: 9676 9fb5 f6db 923c f792 a9ac 3f08 57bf
00000350: 0ba8 c26e b2c8 a63c 6d74 6567 071a 9a3c
00000360: 0501 2768 127a 4ebf cf55 baac c187 3e3c
00000370: 124a b464 369b 11bc 1c57 a9fc 318e 453f
00000380: da9b 6964 1653 4dbc d645 3cf5 3842 133c
00000390: 4473 6f38 5c94 71bc e562 fe0e 5954 7bbc
000003a0: 5a5b d6d8 0432 47bf 4b0a a487 3538 9fbc
000003b0: 485b fec5 91b3 46bc 40de 84c6 2bcd 77bc
000003c0: a1e4 c048 363c 75bc 9295 f645 b344 44bf
000003d0: 1271 f61d 1559 a2bc 1e5a 8c6f bd0a 76bc
000003e0: 9ddb c622 b333 07bc 4d5f 6eb8 2dc7 413c
000003f0: 03b0 144d 17be 533c 59c8 500b 1a50 f0be
00000400: 65cf 9ee3 df13 703c 4500 63b5 3add 26bc
00000410: b020 1161 c7f5 013c 2ccf 3095 6d07 2abc
00000420: 08ae 0a4a c577 6a3c 5921 4579 579e 563c
00000430: 2fbd 788b c9ba 3f3f b95a d618 9242 883c
00000440: 57de 441e d473 5c3c 6b34 f84a eeeb 04bc
00000450: 61a9 52e0 afa9 9f3f 2a53 2441 31e9 b33f
00000460: 78d8 3222 f4c2 b83f 9492 8589 7ed9 a33f
00000470: b29b 6923 49ea 293f d0a5 880b 4d97 603c
00000480: 4050 abf2 05c7 513c 54d2 b84c e298 633f
00000490: 3062 d061 a9f6 97bc 89e8 8464 57ae 80bc
000004a0: 42b9 7cf6 1f6a 6e3f f0fc 11e6 306f b9bc
000004b0: 0673 f10b b34b 8ebc c8c7 bcac 3f08 573f
000004c0: 2cb2 2723 3ed9 a2bc 9ab1 952a a4b8 9abc
000004d0: 7b24 2a68 127a 4e3f 6ac4 ad9a ff63 40bc
000004e0: acec 4420 403b 3abc 5067 a9fc 318e 453f
000004f0: 0529 ec32 7d7c 46bc e1b5 0e2b e512 31bc
00000500: 5ce5 a5d2 2021 713c bf73 4038 56fc 72bc
00000510: 3ff9 d4d8 0432 47bf 3a90 22c3 0622 9cbc
00000520: aeaf 9553 7026 463c f94a b028 ec01 773c
00000530: a7a8 31dc a23f 88bc 4cbf f345 b344 44bf
00000540: 851e c1ff 557d 9bbc cad7 7fcc a640 773c
00000550: 2148 4789 7c06 d8bb d708 785b 995f 403c
00000560: b6e1 bcd6 2c1d 35bc e877 570b 1a50 f03e
00000570: f0fd e38d d4f4 6ebc d917 4119 695e 22bc
00000580: f4ad 827d d95b 113c 1ebd 15b1 84fd 333c
00000590: f041 7aa8 5857 6d3c f3cd f894 9aac 56bc
000005a0: e037 7c8b c9ba 3fbf 524e 6efb d77c 79bc
000005b0: edf3 9e2f b7ea 5e3c 48f7 bf82 475b 25bc
000005c0: 7366 eb14 2fb0 a33f 4c04 3222 f4c2 b83f
000005d0: 8e54 048b 3acb be3f 837c be63 6eaf a83f
000005e0: 7eec 5618 411d 303f 3263 11e4 c654 993c
000005f0: 5943 f533 d563 813c ab02 83ac 145f 68bf
00000600: eb03 a1c6 ebab ae3c 7e42 f9ac 2c8b 723c
00000610: 4a29 d43c 7ae9 72bf a5ff 7362 31aa c13c
00000620: bfb5 a5e7 2274 973c 96d5 2b67 aca4 5cbf
00000630: d971 b8b3 a355 ac3c f9fc 8400 f13a a03c
00000640: 01c3 43bc 64f3 52bf b2a1 bd18 e7fb 423c
00000650: dc9d 0ba8 3ee5 15bc 8780 4214 85ce 4a3f
00000660: f3a0 1e3f f83b 52bc cfb9 b59c 4ef3 173c
00000670: aded 3d23 b9dc 75bc c6e2 ea37 63fe 80bc
00000680: 9ad9 709c 9ed8 4cbf 9027 6655 9f69 a3bc
00000690: 5ddc 2b67 5d3b 4cbc 1b53 f7bb 9199 7dbc
000006a0: 14b9 d76b 9068 7abc a787 3f1f c134 49bf
000006b0: 7fa6 4cca 5ed1 a6bc c2e8 6bde 6769 7bbc
000006c0: ab7e b8b9 b5da 0cbc 9437 20f8 eb1b 463c
000006d0: b412 f21f 5a8d 583c af04 9a4b 7849 f4be
000006e0: 5e3a 2105 92fe 733c 556a 9b7e 2c6f 2cbc
000006f0: 97f3 66e4 df55 063c eee2 d60f 602f 30bc
00000700: faa1 6f16 3b75 703c dd6c 9337 f720 5c3c
00000710: d7ac 1027 d1ba 433f 7d35 6fca 912b 8e3c
00000720: a346 cf3d 25b1 613c aa32 139f b904 0abc
00000730: 4c66 eb14 2fb0 a33f 0709 3222 f4c2 b83f
00000740: 6a5c 058b 3acb be3f d4aa be63 6eaf a83f
00000750: 45d0 5d18 411d 303f 2ffb bab2 03a2 643c
00000760: a5a2 ea81 ba1b 563c 4c09 83ac 145f 683f
00000770: 5d4f 15f1 2acd 9dbc 5a9e 57fb aabe 84bc
00000780: 6e71 d43c 7ae9 723f d695 e60a 6da1 bfbc
00000790: 4b7a 4206 8fd6 92bc 38b8 4367 aca4 5c3f
000007a0: 82ad d8a2 c070 a7bc e382 f161 919d a0bc
000007b0: 9ab6 45bc 64f3 523f ad92 4ebb 3662 44bc
000007c0: 6a24 304f 994f 40bc ad94 4214 85ce 4a3f
000007d0: 2767 64b1 ddf6 4bbc 62e4 4fe2 b73b 35bc
000007e0: 75b6 9f31 6b4d 753c 824e 2164 659c 77bc
000007f0: 3c21 6f9c 9ed8 4cbf 127b 37bb 477e a1bc
